…
1': 10, 'neg_ratio': 0.5, 'epochs': 40, 'val_split': None, 'batch_size': 512}
features: [Hydrophobicity(), Polarity(), Mass(), Hydrophilicity(), Charge()]
operator: AbsDifferenceOperator()
neg_ref: False
stratified: True
Folds:
size: 8462 epitopes: 55
size: 8462 epitopes: 61
size: 8462 epitopes: 66
Iteration: 0
batch size 512
train set 16924
val set 8462
Training model:
_________________________________________________________________
Layer (type)                 Output Shape              Param #   
=================================================================
conv2d_1 (Conv2D)            (None, 20, 13, 128)       5888      
_________________________________________________________________
batch_normalization_1 (Batch (None, 20, 13, 128)       512       
_________________________________________________________________
conv2d_2 (Conv2D)            (None, 20, 13, 64)        73792     
_________________________________________________________________
max_pooling2d_1 (MaxPooling2 (None, 10, 6, 64)         0         
_________________________________________________________________
dropout_1 (Dropout)          (None, 10, 6, 64)         0         
_________________________________________________________________
batch_normalization_2 (Batch (None, 10, 6, 64)         256       
_________________________________________________________________
conv2d_3 (Conv2D)            (None, 10, 6, 128)        73856     
_________________________________________________________________
batch_normalization_3 (Batch (None, 10, 6, 128)        512       
_________________________________________________________________
conv2d_4 (Conv2D)            (None, 10, 6, 64)         73792     
_________________________________________________________________
max_pooling2d_2 (MaxPooling2 (None, 5, 3, 64)          0         
_________________________________________________________________
dropout_2 (Dropout)          (None, 5, 3, 64)          0         
_________________________________________________________________
batch_normalization_4 (Batch (None, 5, 3, 64)          256       
_________________________________________________________________
flatten_1 (Flatten)          (None, 960)               0         
_________________________________________________________________
dense_1 (Dense)              (None, 32)                30752     
_________________________________________________________________
dense_2 (Dense)              (None, 1)                 33        
=================================================================
Total params: 259,649
Trainable params: 258,881
Non-trainable params: 768
_________________________________________________________________
Fitting CNN
Using 28 workers
Epoch 1/40

 1/63 [..............................] - ETA: 1:44 - loss: 0.7957 - acc: 0.5059 - balanced_accuracy: 0.5059 - mean_pred: 0.4537 - AUC: 0.5121 - precision: 0.5070 - recall: 0.4219
…
